data.pth (torch, 4991 bytes, 6 tensors)

l1.weight f4 [8, 54]
00000000: 495b e83e e867 2abe 84e3 8d3e 38c1 a8bd
00000010: 641a 863d b5a5 233f 19c7 003f c68a 793e
00000020: 91a7 c33e 0734 d23e b9d6 3ebe 024b 26bd
00000030: 2631 bb3b a46e 85bb 4576 a5bd f9f4 39bd
00000040: 996c e3bd 36f9 1f3f e6de 70be f70d c5be
00000050: 2602 a53e cb5e 0cbf b9b5 00bf c169 1cbe
00000060: 1751 2d3e 8314 36be 8d08 98bd aff1 a8be
00000070: 6383 74be 9b2b 8fbe 70f8 b83e eb1b 583e
00000080: 04b3 b73e eb2d 9e3e fc19 92be fe6c dc3b
00000090: f239 92bd 0e64 7a3e 441e ea3e c192 bd3e
000000a0: bbf3 f03e 5198 81be 2cae 0ebc 94e6 adbd
000000b0: 239c dc3e 2e39 93be bb8d 403f 3fcc b83e
000000c0: 4008 17bc d67d 7dbe c97b 03bd c511 96bd
000000d0: 6bd3 aa3e f507 9a3e eae3 10be eb3d b2be
000000e0: b9e8 093f dc39 1bbe 7ccb d83e 5eaf 87be
000000f0: dba6 233f 000d c93e 130a 243f 843b cb3e
00000100: 86af 0ebe 08d7 e7bd f1db 2f3f f3ab 0a3d
00000110: e5aa 0cbe bef4 16be 93d4 febd d742 87be
00000120: c4f5 dc3e 600d 87be 0e8c ddba e00a 87be
00000130: e415 87be 11f9 33bf 7168 183f e865 a5be
00000140: 4f15 163f 07b5 cdbe 4ee3 513e 5383 9fbe
00000150: 7874 a9be e6da 543d abef bcbd f8fe 163f
00000160: ce17 44bd 9f85 86bc f3b9 8c3e d68d 4a3f
00000170: f3b1 233f 172a 193f dd33 91be 6588 0a3f
00000180: 6758 08be 8b33 c9bd 166a de3e ce60 8cbd
00000190: fafb fcbe 9a6f f7bd bb8c 7b3e 2a7f 2a3f
000001a0: 9e36 78bd e463 003f fe0e 343f 3695 b33e
000001b0: 4cfc bd3e 3b4d afbe 23e1 b2bc 3d6e c33e
000001c0: a70e bf3e 63cc 6d3f 9b9d 883d bd69 213e
000001d0: ad26 92be 6355 943c 310b 143f f735 acbe
000001e0: 0c0a a9be 04bb 09bf 73d8 9abe f7cf 44be
000001f0: 4f83 fc3e be2b 6b3f 6bd5 3bbc dcee 353f
00000200: 521a 2c3e 339e 3b3f af48 373f 7771 443e
00000210: 384e 953d 259a 133f 9814 9cbc 0504 bbbe
00000220: 31e2 0bbd 07c6 f2be 1cf4 373f 6383 d4be
00000230: 71d5 b83e fea1 193d 2625 87be 65fd 70be
00000240: c3a4 973d 510f a8be ed3f cf3d c645 833e
00000250: 62da 443f da43 02be 3f35 acbe c88c b3be
00000260: 3919 71bd e201 76be bbe9 f63e 6880 803e
00000270: 51ea bb3e 8d82 f5bd 3780 0abe 4a33 acbd
00000280: 1c31 a43d c9dd b53e 9063 2cbe ab41 ab3d
00000290: 5a5b 073f 617f c5bd 8516 1e3e 9bfa 603f
000002a0: 684b bc3e 7bc2 ff3e 2baa 183f 9ed3 123f
000002b0: 60b2 afbe 2bcc 073f 7d87 713e 51d1 0e3f
000002c0: 0dc8 9abd 2a43 513e 5ca1 09be ed9e 543f
000002d0: e3c2 43be 9c4f 9cbe b763 6cbd 4607 f0be
000002e0: e19c aebe f145 c3be b720 d63e 0fd0 22be
000002f0: 1649 8ebe 402c b43d 4e07 b13c a527 39be
00000300: df51 dc3e cf10 353f 0a29 f8bd 1d54 f53e
00000310: 41a7 983e 1b2b 993e 40a7 c0bd 8e15 1b3f
00000320: 5a10 de3e 90cc 913e e952 153f ad69 e1be
00000330: c0c8 e13e 19f2 da3d 83d4 193f fe24 f43e
00000340: 9363 26bf 5ac2 80be 8aa7 87bc b719 aabe
00000350: acf7 bc3e e956 2abe f179 d43e ab25 5f3e
00000360: 1696 2ebe b736 bebe e3ce 583d 88eb d23e
00000370: 1632 a23e 8b2d d6bc 187b 37bd 2549 16bd
00000380: 4604 243e a5ef 0f3c 9194 1b3f b2e5 283f
00000390: 0b1a be3e ff43 fb3e 3634 27be 057b e83e
000003a0: 1e94 ec3e cb3b a8bd d04c 1d3e 04e4 453f
000003b0: 3346 9ebe 810a 4a3f 2047 463f 6767 4a3f
000003c0: 5eb3 ec3e abbc 183f 7e81 733e e82a b2be
000003d0: 43be 3bbd abf7 5ebe 65af 9c3d f4c3 213f
000003e0: 7805 ad3c da79 31bd 4a38 9dbe afad a63e
000003f0: 94ea 863d 4497 963d 12a1 10be 3938 2dbe
0.45382145 -0.166412 0.27712643 -0.082399786 0.06548002 0.63924724 0.503038 0.24369344
0.3821378 0.4105532 -0.18636598 -0.040598877 0.005712646 -0.0040720273 -0.08079199 -0.04539964
-0.11104698 0.6248964 -0.23522529 -0.38487217 0.32228202 -0.5483214 -0.50277287 -0.15274717
0.16925465 -0.17781262 -0.07423506 -0.3299689 -0.23878245 -0.27962956 0.36127043 0.211044
0.35878766 0.30894408 -0.2853545 0.00672686 -0.071399584 0.2445223 0.45726216 0.37026027
0.47060952 -0.2531152 -0.008708518 -0.08491245 0.43087873 -0.28754562 0.75216264 0.36093327
-0.009218276 -0.24755034 -0.032100473 -0.07327608 0.33364424 0.30084196 -0.14149442 -0.34812865
0.5387073 -0.1515879 0.42342746 -0.26500982 0.63926476 0.3926773 0.6407787 0.39693844
-0.13934144 -0.11320311 0.6869498 0.03385539 -0.13737066 -0.14741799 -0.12442889 -0.26418182
0.43156254 -0.26377392 -0.0016902701 -0.26375484 -0.2638389 -0.7030192 0.59534365 -0.3230431
0.58626264 -0.40177175 0.20496866 -0.3115488 -0.3309667 0.05196657 -0.092254005 0.589828
-0.047874264 -0.016421137 0.27485618 0.79122674 0.63943404 0.5982985 -0.2835988 0.5411437
-0.13314973 -0.09824284 0.43440312 -0.068544015 -0.49410993 -0.12081833 0.24565403 0.66600287
-0.060598962 0.5015242 0.70335376 0.35074776 0.3710655 -0.3423861 -0.02183587 0.38170043
0.37315866 0.92889994 0.06670686 0.15762992 -0.28545132 0.018107122 0.57829577 -0.33634922
-0.33015478 -0.5380099 -0.30243263 -0.19219957 0.4931893 0.9186362 -0.011464457 0.71067595
0.16806915 0.7328827 0.7159528 0.19183908 0.0729031 0.5765708 -0.019052789 -0.36526504
-0.03415126 -0.47416708 0.71856856 -0.4150649 0.36100343 0.037508003 -0.2639553 -0.23534162
0.07404473 -0.32824185 0.10119615 0.2563917 0.76895726 -0.12721196 -0.33634374 -0.35068345
-0.058861945 -0.24024156 0.48225197 0.25097966 0.36702207 -0.11987791 -0.13525473 -0.0840822
0.08017179 0.3552077 -0.16834855 0.083621345 0.52873766 -0.09643436 0.15438278 0.87882394
0.3677628 0.49953064 0.59634656 0.5735415 -0.34315777 0.5304591 0.23586841 0.5578814
-0.07557688 0.20435777 -0.1344046 0.83055 -0.19117312 -0.30529487 -0.057712283 -0.4688055
-0.34104064 -0.381393 0.41821834 -0.1589968 -0.27790135 0.087975025 0.021609928 -0.1808153
0.43031213 0.7072877 -0.121172026 0.47915736 0.29815105 0.299157 -0.094069004 0.60579765
0.4337185 0.2847638 0.58329636 -0.44025937 0.44098473 0.10690708 0.6008989 0.47684473
-0.6499569 -0.25148278 -0.016559381 -0.33222744 0.3690771 -0.16634716 0.41499284 0.21791713
-0.1704944 -0.3715112 0.052931678 0.4119532 0.31678838 -0.026144763 -0.044795126 -0.03669085
0.16017255 0.008785163 0.6077357 0.6597549 0.37129244 0.49075314 -0.1632851 0.45406356
0.46206754 -0.082145296 0.15361333 0.7730105 -0.30912933 0.7892228 0.7745228 0.7906403
0.46230596 0.59662884 0.23779866 -0.3479836 -0.045835745 -0.21774165 0.07650641 0.63189626
0.021120772 -0.043329097 -0.30707008 0.32554385 0.06587711 0.073530704 -0.14123943 -0.16915978

l1.bias f4 [8]
00000000: 1a51 573f ee0c 873e 5506 943f f589 f43e
00000010: 0099 4f3f 29a2 9a3e 1cf9 4a3f f709 8b3c
0.84108126 0.26377052 1.1564432 0.47761503 0.81092834 0.30201843 0.7928636 0.016972525

l2.weight f4 [8, 8]
00000000: 67ff 8abd 539a 373e f60b 043f 8721 093e
00000010: eef4 123d 4621 4bbf 44d5 703e ee06 e7be
00000020: cf2d 4ebf 4e05 893e 1ad1 973e 3a01 26bf
00000030: 27ee a23f 2644 3ebf d308 823f c571 5f3d
00000040: f296 7f3f f4dd 083f 5e4a 163f 5012 a03d
00000050: 2cec 09bf f8d1 953f 1e0d 633e efad 0c3e
00000060: 8d6c 803f f5e7 3bbf 1d68 a33f e514 203f
00000070: b955 463f 1926 f3be ae70 e3be 0f3f f4bd
00000080: 92da e73e def9 84bf 89dc 2a3f 5073 7bbe
00000090: 139b 99be 5bfa 9a3d 1153 953f ace4 91be
000000a0: 7006 c13e 12ee 753f b136 603f 6479 593f
000000b0: 9c0e cc3e 3900 ad3e 4a36 ccbe 0883 2e3f
000000c0: 86ef 1b3f 9565 413f a436 38bf d001 c23f
000000d0: 7b9a 103f d1a4 69bd ce59 3d3d c8d4 5bbe
000000e0: 4eb0 a23e 3dfe f83e e7f1 87be aced 41bf
000000f0: 815a 643f 0c93 473e c486 963f d443 be3e
-0.067869954 0.17929964 0.5158075 0.13391696 0.035878114 -0.79347646 0.23518854 -0.45122474
-0.8053865 0.2676186 0.2965172 -0.6484562 1.2728928 -0.74322736 1.0158943 0.05455186
0.998397 0.53463674 0.58707225 0.07815993 -0.53875995 1.1704702 0.22172973 0.13738225
1.0033127 -0.73400813 1.2766148 0.6253188 0.7747455 -0.47490004 -0.44421905 -0.1192609
0.45283943 -1.0388753 0.6674276 -0.24555707 -0.30001125 0.07567283 1.1665975 -0.28494775
0.37700224 0.9606639 0.8758345 0.8495085 0.39854896 0.33789232 -0.3988517 0.6816869
0.6091236 0.75545627 -0.71958375 1.5156803 0.5648572 -0.057041947 0.046228223 -0.21467888
0.31775135 0.48631468 -0.26551744 -0.75753284 0.892006 0.19489688 1.1759877 0.37161124

l2.bias f4 [8]
00000000: 6a34 f13e 376e 0b3f caf1 adbd 9b7d 3c3f
00000010: 8b48 503f 86b9 1c3e 55a6 583e 03b2 7e3d
0.471103 0.5446505 -0.08493383 0.7362916 0.8136069 0.15305147 0.211572 0.062181484

l3.weight f4 [7, 8]
00000000: b0f8 e6be 694c a93e 43c2 cfbf bcab 1c3e
00000010: 624d 90bf 7b91 f3be 9236 513f 84ac 093f
00000020: 0e82 e63e c379 cf3e d572 83bf 7b51 abbf
00000030: 63cd 573f 8df1 abbf 1a58 c03e e190 4a3e
00000040: 0757 583d 9d9c 8cbf 7331 79bd 38c5 3e3f
00000050: 6a9f f23d 8341 983e d60b 9dbd 10dd efbf
00000060: 058d 083f b329 0b3f 1ae2 8ebf b77a 2c3f
00000070: e9c4 313e bd2f 92be 2e20 95bf 1abf 043d
00000080: 2d4e 61bf 4613 443e 7fcc 21be f3c7 89bf
00000090: 58b6 37bf fa41 083f 4884 1cbe 2589 d33e
000000a0: a130 333e 8eb5 80bf 4d43 d53e 2a08 52be
000000b0: 3498 bfbf e884 953e 7f13 5c3f f6c5 5abf
000000c0: 44e6 89be df92 6abf 0bf2 1d3f 9005 be3d
000000d0: 66fe 193f 8afc cabe 3e16 d6bf 8cb0 35be
-0.45111609 0.3306611 -1.6231159 0.15299886 -1.1273615 -0.4757193 0.8172389 0.5377886
0.450211 0.40522584 -1.0269419 -1.3384241 0.8429777 -1.343309 0.37567216 0.1978183
0.05281737 -1.0985295 -0.060838174 0.7451968 0.11846812 0.2973748 -0.07668273 -1.8739338
0.5334018 0.543605 -1.1162751 0.6737475 0.17360272 -0.28552046 -1.1650445 0.03240881
-0.8800991 0.19147977 -0.15800665 -1.0764145 -0.7176261 0.5322567 -0.15284836 0.4131557
0.17499019 -1.0055406 0.4165291 -0.20510927 -1.4968324 0.29202962 0.8596725 -0.85458314
-0.2693349 -0.9163036 0.61697453 0.09278405 0.60153806 -0.39645797 -1.6725538 -0.17743129

l3.bias f4 [7]
00000000: 11d2 d3be 46aa e33e 0c77 05bd c908 10be
00000010: 7bfc cdbd a020 8fbc d81a 453d
-0.41371205 0.44465846 -0.032584235 -0.14065851 -0.100579225 -0.017471611 0.048121303
